first_network.ckpt (torch_old, 20815 bytes, 9 tensors)

encoder.0.weight f4 [16, 1, 100]
-0.10051981 0.0647848 0.038514167 -0.09044583 0.061579507 0.057881147 -0.045073662 0.09020255
-0.07555062 0.057127967 -0.06446687 -0.02138073 -0.029855017 -0.024383837 0.021102814 0.046998758
-0.08849438 0.060953334 0.014207235 0.01477616 -0.07553886 -0.07635048 -0.028633969 0.06250238
0.061181553 -0.06693267 0.07295609 -0.07101786 0.06447291 -0.06899226 0.05827885 0.07162031
-0.06958057 -0.09045722 0.057017524 -0.048787486 0.052560367 0.063617095 -0.028405316 -0.04299213
-0.035113014 0.005121597 0.08573681 -0.082928486 0.009338674 0.046077278 0.0457773 -0.014594302
-0.1000897 -0.026571874 0.053354256 0.087414496 0.02516906 -0.03626721 0.07142205 0.08579237
0.088995285 0.067733936 -0.03610161 -0.054768033 -0.094951466 0.01009247 0.060863853 -0.071215615
0.027934318 -0.031591352 -0.09320503 -0.041864835 0.054083455 0.09534584 0.025642907 0.0161856
-0.02771598 0.06601517 -0.0025819323 -0.050659653 -0.01419694 0.075699046 0.08634985 -0.05342407
-0.07248501 0.027292702 -0.049408667 0.07237176 -0.086266235 0.02997648 -0.03613 -0.007958503
0.07507598 0.032732815 0.08166809 -0.02461755 0.07211567 -0.0130746905 0.029717984 -0.008732002
0.076426215 -0.097403646 -0.044645067 -0.030746398 0.021704039 0.037329067 -0.0029433323 -0.070604004
-0.062863514 -0.05826139 -0.0021569666 -0.0058556586 -0.03036287 -0.025041172 0.045094676 -0.022893397
-0.09492108 0.08692639 -0.02941033 0.08906134 0.032655 -0.01265203 0.08464038 -0.009149173
0.012683524 -0.00346684 -0.06772823 0.09326889 0.01941709 -0.007083862 -0.005201014 -0.041986175
0.08666055 0.0493886 -0.049503244 0.032536056 0.054732937 0.08774244 0.027549688 0.07195509
0.08346455 0.0029975611 -0.04303948 -0.05469088 0.07416577 0.04803228 0.06775132 0.05815827
-0.095379435 0.042178 -0.059413478 -0.0030156984 -0.057929758 -0.096938 0.08476725 -0.084608406
-0.02652374 0.017118996 0.027738634 -0.06702656 0.087260395 -0.05367816 0.047697615 0.036262482
-0.029742897 0.0013563099 -0.013461202 0.037627645 0.029547865 0.08495399 -0.021428635 -0.04658078
0.028621588 -0.042532206 -0.025285425 0.009428873 0.096316405 0.080395624 -0.09161036 -0.08192331
-0.032931007 0.078249544 0.0320408 -0.0960234 -0.023557523 0.084316134 -0.02210891 -0.08138708
-0.08537253 -0.031693723 -0.08132395 -0.08415587 -0.09865524 0.064088985 0.078350715 0.06519443
-0.022898126 -0.08509703 0.014128957 0.08024903 0.051543158 0.097290605 -0.048855968 -0.067866996
-0.0072846827 0.09116312 0.061291512 0.0049584564 0.085795514 -0.026217813 0.038909227 -0.047609378
0.07590557 -0.061547954 0.035097178 0.083759464 -0.021576844 -0.024113186 -0.017509997 0.07310931
0.09458277 0.07171799 0.03519694 -0.00014929721 -0.020337898 0.07818289 0.01667937 -0.047842033
-0.07799277 -0.020676702 -0.03449674 -0.039615974 -0.031360585 0.08371276 0.025327068 0.04842607
0.091996044 -0.07273286 0.07094303 0.035364494 0.073874906 0.03282259 0.08814602 -0.059185803
0.027887251 -0.0794467 0.053574353 0.007679287 0.01363866 0.0972057 0.05719146 -0.07493242
0.06690756 0.0054830727 0.027786376 0.018115165 0.07311046 0.00988536 0.0818145 0.08529052
00000000: 55dd cdbd e5ad 843d 08c1 1d3d aa3b b9bd
00000010: cb3a 7c3d c814 6d3d 299f 38bd 1dbc b83d
00000020: 49ba 9abd 04ff 693d 3507 84bd a426 afbc
00000030: 8292 f4bc 9dc0 c7bc cfdf ac3c c581 403d
00000040: 8b3c b5bd 34aa 793d 76c5 683c b517 723c
00000050: 1eb4 9abd a45d 9cbd c991 eabc 3f01 803d
00000060: 8299 7a3d ff13 89bd 016a 953d d071 91bd
00000070: 5f0a 843d d04b 8dbd ceb5 6e3d abad 923d
00000080: 4280 8ebd a341 b9bd 358b 693d 63d5 47bd
00000090: 8a49 573d ae49 823d 44b2 e8bc 8418 30bd
000000a0: aad2 0fbd 12d3 a73b c896 af3d 69d6 a9bd
000000b0: 3d01 193c 87bb 3c3d fa80 3b3d f01c 6fbc
000000c0: d4fb ccbd 42ad d9bc fe89 5a3d 5f06 b33d
000000d0: 582f ce3c ed8c 14bd b945 923d e9b3 af3d
000000e0: 2943 b63d 17b8 8a3d 48df 13bd 7254 60bd
000000f0: ea75 c2bd e35a 253c 604c 793d 7ed9 91bd
00000100: 83d6 e43c ef65 01bd 47e2 bebd 767a 2bbd
00000110: 9d86 5d3d ae44 c33d 1311 d23c aa97 843c
00000120: 9f0c e3bc f632 873d a335 29bb 7f80 4fbd
00000130: 489a 68bc 1a08 9b3d 31d8 b03d 33d3 5abd
00000140: 0573 94bd f294 df3c be60 4abd a537 943d
00000150: 5aac b0bd 3c91 f53c 0dfd 13bd 6264 02bc
00000160: 6fc1 993d d812 063d 9941 a73d bfaa c9bc
00000170: 61b1 933d 3a37 56bc 2173 f33c ac10 0fbc
00000180: 5985 9c3d 907b c7bd bfdd 36bd dfdf fbbc
00000190: abcc b13c 5de6 183d ece4 40bb d598 90bd
000001a0: 96be 80bd 7fa3 6ebd e55b 0dbb d3e0 bfbb
000001b0: 8ebb f8bc 2523 cdbc 32b5 383d ef8a bbbc
000001c0: fc65 c2bd 7706 b23d efed f0bc cb65 b63d
000001d0: 40c1 053d 764a 4fbc f057 ad3d 6ae6 15bc
000001e0: 8ece 4f3c ec33 63bb 19b5 8abd c303 bf3d
000001f0: 9710 9f3c be1f e8bb 456d aabb b2f9 2bbd
00000200: 167b b13d b34b 4a3d eac3 4abd 8744 053d
00000210: a52f 603d 4fb2 b33d e2af e13c 315d 933d
00000220: 76ef aa3d bb72 443b 2a4a 30bd 8b03 60bd
00000230: 39e4 973d 7fbd 443d 34c1 8a3d 5e37 6e3d
00000240: 4b56 c3bd d7c2 2c3d 8c5b 73bd 06a3 45bb
00000250: c147 6dbd 6e87 c6bd 749a ad3d 2c47 adbd
00000260: 5048 d9bc 233d 8c3c 223c e33c 3945 89bd
00000270: 94b5 b23d a1dd 5bbd 935e 433d f887 143d
00000280: 60a7 f3bc 35c6 b13a 608c 5cbc 721f 1a3d
00000290: 5d0e f23c 5cfc ad3d 1b8b afbc 7dcb 3ebd
000002a0: d277 ea3c 4036 2ebd 6123 cfbc 8f7b 1a3c
000002b0: 8941 c53d 76a6 a43d 369e bbbd 69c7 a7bd
000002c0: aae2 06bd 4c41 a03d 373d 033d eba7 c4bd
000002d0: b5fb c0bc f0ad ac3d bf1d b5bc 45ae a6bd
000002e0: cbd7 aebd 47d1 01bd 2c8d a6bd ea59 acbd
000002f0: c20b cabd 1641 833d 5776 a03d a884 853d
00000300: da94 bbbc 5a47 aebd 247d 673c 9a59 a43d
00000310: eb1e 533d 4c40 c73d 321d 48bd dafd 8abd
00000320: 59b4 eebb bbb3 ba3d cf0c 7b3d 8c7a a23b
00000330: 8fb5 af3d bdc6 d6bc 485f 1f3d 0d02 43bd
00000340: 6174 9b3d b519 7cbd 0fc2 0f3d 158a ab3d
00000350: ecc1 b0bc 0489 c5bc 2071 8fbc 55ba 953d
00000360: 9cb4 c13d e2e0 923d ab2a 103d aa8c 1cb9
00000370: aa9b a6bc 5a1e a03d 2da3 883c 02f6 43bd
00000380: acba 9fbd 3062 a9bc 744c 0dbd 5c44 22bd
00000390: f573 00bd 9871 ab3d b67a cf3c 6a5a 463d
000003a0: 6c68 bc3d f7f4 94bd 944a 913d 5cda 103d
000003b0: ba4b 973d fb70 063d e785 b43d d06c 72bd
000003c0: ce73 e43c f4b4 a2bd c870 5b3d 87a2 fb3b
000003d0: b074 5f3c c813 c73d 9841 6a3d 2b76 99bd
000003e0: d506 893d 59ab b33b 41a0 e33c 4166 943c
000003f0: f0ba 953d 34f6 213c 5c8e a73d ccac ae3d

encoder.0.bias f4 [16]
-0.051831555 0.025033358 -0.058395628 -0.0028344688 -0.0983041 0.038315635 0.08186864 0.044859357
0.028556839 -0.09226435 -0.026473705 0.0017116237 0.08888577 -0.07291934 -0.08765171 -0.049895246
00000000: 534d 54bd c212 cd3c 4130 6fbd 7fc2 39bb
00000010: a953 c9bd dbf0 1c3d bfaa a73d 72be 373d
00000020: 08f0 e93c 17f5 bcbd 62df d8bc 9058 e03a
00000030: be09 b63d bc56 95bd bd82 b3bd f55e 4cbd

encoder.3.weight f4 [8, 16, 3]
0.060114082 0.032379955 0.017309994 0.043812703 -0.079692125 0.010723131 0.07284021 -0.06690177
0.073043525 -0.120727494 -0.0719606 -0.09954041 -0.073961906 -0.02677784 0.10481304 -0.0035289733
-0.055610385 0.06563158 -0.024076056 -0.07663594 0.12229389 -0.091817945 0.12855041 0.10421981
-0.09106536 -0.14026466 -0.025245745 -0.030687992 0.052703634 -0.038666625 -0.012624941 0.047709845
0.035239674 0.0032583522 -0.06028161 0.09098222 0.1332349 -0.11368054 -0.07479699 -0.078234464
-0.12045333 -0.027713975 -0.120070636 0.014008349 0.030758075 0.10418253 0.003937602 -0.080431275
0.0037475582 -0.090828374 0.010437483 0.077434935 0.13500862 -0.11243215 -0.09210943 0.14106792
0.06468236 0.13774012 -0.12528567 0.08133372 0.12866455 -0.024321998 -0.026742222 -0.04015343
-0.059048153 0.02213288 -0.055307254 0.0030077822 -0.02299339 -0.05127353 0.044045866 0.14100142
-0.104084335 -0.026188372 -0.031441387 0.011531227 -0.017247321 0.0053058104 -0.055019375 0.07442074
0.10074101 -0.12348997 0.1348586 -0.0873175 -0.021505507 0.017340032 -0.10545481 0.016055882
0.016522769 0.046413604 -0.04030509 0.068652526 -0.13519472 -0.09802072 0.06242159 0.08955229
-0.100143835 0.047646575 -0.113520354 0.04315518 0.02732267 0.025420144 0.097193 -0.122383155
-0.057948697 -0.009757064 -0.09202209 -0.041919682 -0.086800575 -0.1047953 0.042601805 0.053871226
0.13977422 -0.038185496 -0.13938436 0.1360364 -0.005383984 -0.089562714 0.102537714 0.019240148
0.07198709 0.000116385134 0.12228526 0.12394067 0.10843383 -0.05617729 -0.061495837 -0.09343814
-0.13923506 -0.12354493 0.120088205 -0.09201947 -0.120019644 0.008367966 -0.10243999 -0.09301014
0.13893564 -0.0045516933 0.10971958 -0.0783634 0.064460896 -0.091436826 0.10162874 0.08198303
0.00780921 -0.061818756 -0.037092015 0.0076575326 0.121089585 0.08575376 -0.0038078323 0.050189976
0.09669823 -0.13084011 0.10979177 -0.048238087 0.10257364 0.030819451 -0.031450678 0.064349055
0.04553718 -0.06581337 0.06912407 0.036891665 -0.07933749 -0.109624155 0.095837444 0.097784266
0.09004488 0.09773664 -0.1330834 -0.03748281 0.05512323 -0.14133894 0.11554136 0.07645799
0.035437003 0.13779728 -0.051964954 -0.0354275 -0.015179855 0.13061175 -0.014667268 -0.06277027
-0.13678193 -0.10940185 0.1237779 0.018747164 0.008649644 -0.015513342 0.017615367 0.14300261
0.12965587 0.08090944 0.12964617 -0.067743585 0.022281833 -0.10284702 0.1311851 -0.09450229
0.063292265 0.12520383 0.1003292 0.14138639 -0.0029432566 0.0090117315 -0.07459544 0.13619691
-0.12430844 -0.050613847 -0.117870755 -0.103372835 -0.10583075 0.13070327 0.11154941 -0.13075064
0.05010359 0.02027435 -0.0012271566 0.13266894 -0.06997703 0.020592207 -0.0983355 -0.13853432
-0.04047486 0.0969022 -0.11706851 0.10459634 -0.021053152 0.123805344 0.03947616 -0.042827565
0.11717573 -0.050787326 -0.12799196 0.122696556 -0.097061776 0.04653334 0.09308333 0.044034764
-0.07043266 0.035373602 0.07022049 0.12249976 0.050209273 -0.021182533 0.06559302 0.10633394
-0.10609529 0.028666291 -0.033241104 0.09086242 -0.108350515 -0.14132376 -0.08421565 -0.006834622
00000000: 2f3a 763d d8a0 043d b0cd 8d3c f374 333d
00000010: a035 a3bd 12b0 2f3c 3f2d 953d cc03 89bd
00000020: d897 953d fa3f f7bd 1460 93bd d8db cbbd
00000030: 5779 97bd 335d dbbc 38a8 d63d 5946 67bb
00000040: b7c7 63bd da69 863d 263b c5bc 4ef3 9cbd
00000050: 3875 fa3d 0c0b bcbd b8a2 033e 3271 d53d
00000060: 7a80 babd 8aa1 0fbe 2ad0 cebc 6265 fbbc
00000070: c4df 573d e560 1ebd d7d8 4ebc 666b 433d
00000080: 7a57 103d 148a 553b d9e9 76bd e354 ba3d
00000090: bb6e 083e 58d1 e8bd 2a2f 99bd 6439 a0bd
000000a0: 3cb0 f6bd 6b08 e3bc 98e7 f5bd 4683 653c
000000b0: 5cf8 fb3c a65d d53d 0007 813b 27b9 a4bd
000000c0: 9899 753b 3a04 babd fa01 2b3c 3596 9e3d
000000d0: b33f 0a3e d442 e6bd dea3 bcbd 1c74 103e
000000e0: 2f78 843d bf0b 0d3e e34a 00be 4b92 a63d
000000f0: a4c0 033e ed3e c7bc 8112 dbbc ec77 24bd
00000100: 7adc 71bd 0350 b53c dc89 62bd 361e 453b
00000110: a25c bcbc 3104 52bd 7069 343d ad62 103e
00000120: 2b2a d5bd ff88 d6bc afc8 00bd 79ed 3c3c
00000130: 414a 8dbc 5ddc ad3b ff5b 61bd e769 983d
00000140: 4d51 ce3d 4fe8 fcbd 5f18 0a3e 84d3 b2bd
00000150: 512c b0bc af0c 8e3c b1f8 d7bd a087 833c
00000160: c25a 873c 311c 3e3d f316 25bd b299 8c3d
00000170: 7c70 0abe 16bf c8bd c8ad 7f3d 3167 b73d
00000180: 3618 cdbd 0e29 433d 5c7d e8bd 7cc3 303d
00000190: cbd3 df3c e83d d03c 200d c73d 05a4 fabd
000001a0: 9d5b 6dbd 18dc 1fbc 1476 bcbd f9b3 2bbd
000001b0: 80c4 b1bd eb9e d6bd 3b7f 2e3d 13a8 5c3d
000001c0: f920 0f3e 6568 1cbd c6ba 0ebe 204d 0b3e
000001d0: 226c b0bb a86c b7bd 4bff d13d 849d 9d3c
000001e0: f86d 933d cb13 f438 b270 fa3d 9bd4 fd3d
000001f0: 8e12 de3d 281a 66bd 0fe3 7bbd 7f5c bfbd
00000200: a393 0ebe 2005 fdbd cef0 f53d b474 bcbd
00000210: dccc f5bd cb19 093c 0fcc d1bd 1a7c bebd
00000220: 2545 0e3e 5f26 95bb a9b4 e03d fe7c a0bd
00000230: 1304 843d 3b43 bbbd bb22 d03d b8e6 a73d
00000240: 67e4 ff3b aa35 7dbd cced 17bd 0aec fa3b
00000250: d1fd f73d ab9f af3d d38c 79bb 0194 4d3d
00000260: b909 c63d f3fa 05be 82da e03d 4d95 45bd
00000270: 2112 d23d 1379 fc3c 6dd2 00bd 70c9 833d
00000280: 3285 3a3d 29c9 86bd ec90 8d3d b71b 173d
00000290: b27b a2bd a182 e0bd 6c46 c43d 1e43 c83d
000002a0: 7369 b83d 262a c83d 0447 08be 9387 19bd
000002b0: e5c8 613d 28bb 10be f3a0 ec3d 0296 9c3d
000002c0: 6426 113d bb1a 0d3e 34d9 54bd 6d1c 11bd
000002d0: edb4 78bc 16bf 053e fb4e 70bc b38d 80bd
000002e0: 9010 0cbe 140e e0bd 457f fd3d a793 993c
000002f0: 3db7 0d3c ac2b 7ebc 1a4e 903c 476f 123e
00000300: 82c4 043e d9b3 a53d f7c1 043e 26bd 8abd
00000310: 6488 b63c 75a1 d2bd 6355 063e 6b8a c1bd
00000320: 609f 813d 6f35 003e 6579 cd3d 98c7 103e
00000330: a7e3 40bb f1a5 133c 7ec5 98bd 3477 0b3e
00000340: 6c95 febd 7750 4fbd 3966 f1bd 23b5 d3bd
00000350: cbbd d8bd 14d7 053e 0474 e43d 7fe3 05be
00000360: 6c39 4d3d 6516 a63c 8bd8 a0ba 5eda 073e
00000370: 1e50 8fbd fdb0 a83c 1f64 c9bd f1db 0dbe
00000380: f8c8 25bd a974 c63d 9dc1 efbd 9b36 d63d
00000390: a977 acbc a88d fd3d c1b1 213d f56b 2fbd
000003a0: d4f9 ef3d 5f06 50bd 5310 03be 5548 fb3d
000003b0: 53c8 c6bd be99 3e3d 79a2 be3d cc5d 343d
000003c0: 003f 90bd e9e3 103d c3cf 8f3d 27e1 fa3d
000003d0: 3da8 4d3d fe86 adbc a255 863d 9cc5 d93d
000003e0: 7d48 d9bd 92d5 ea3c d327 08bd 1416 ba3d
000003f0: e0e6 ddbd 2db7 10be 4179 acbd f7f4 dfbb

encoder.3.bias f4 [8]
-0.044152535 -0.12804759 -0.06894581 -0.08655681 0.1298273 -0.1317319 -0.062449213 -0.05476657
00000000: 4ad9 34bd e81e 03be 7633 8dbd b244 b1bd
00000010: 73f1 043e bae4 06be bfca 7fbd e952 60bd

decoder.0.weight f4 [8, 16, 11]
-0.06300878 0.06874368 -0.061774645 0.04204156 -0.07551054 -0.075170256 -0.0062937257 -0.014254726
-0.003082342 -0.062537 0.0070838802 -0.0009416332 0.06828094 0.05781992 0.06499339 -0.03928692
0.029779647 -0.027622866 -0.056063354 0.072903395 0.054999627 0.069521315 0.024313401 -0.0055192513
-0.02488438 -0.0024043377 -0.03970742 -0.04958637 0.011874461 0.034347326 0.04488542 0.039792027
-0.07608317 -0.06180232 -0.04407243 0.054556597 0.009727997 -0.015684208 -0.02873718 -0.052196007
0.050813925 0.05759842 0.0073070587 0.010960627 0.037252475 -0.030943584 0.0058041927 -0.07235911
0.057510942 -0.033404782 -0.057724554 -0.071796566 -0.039958887 0.0545717 0.02231123 0.0012380768
0.06080574 -0.05353416 0.0021818264 -0.014021278 0.04073114 0.0275541 0.014808264 -0.025689278
0.04715314 0.06716449 -0.018409658 -0.0033354682 -0.001297439 -0.029095536 -0.056493096 0.030962387
-0.0073128026 0.0062282076 -0.0002103612 -0.046991337 0.027775913 0.0059957653 -0.04823934 -0.038476575
-0.0012563071 0.046371117 -0.06735217 0.020777402 -0.003915102 -0.06459403 -0.055405747 -0.038741633
-0.055503614 -0.024083776 0.030304635 -0.06862461 0.010097837 0.008846346 0.027910449 -0.04861853
0.033049602 0.056344576 0.04484259 0.003963524 0.025670072 -0.036089968 -0.06837992 0.009387266
0.032182567 0.019698178 -0.0688637 0.0066774106 -0.06306251 0.04454466 -0.070650496 0.036238372
0.044665284 -0.0018883398 0.023124166 0.049159165 -0.007384842 0.040280145 -0.03231042 0.07350157
-0.011957433 0.06637575 -0.06878005 -0.019215979 -0.0037199277 0.05781867 -0.050510425 -0.05948823
0.07062832 -0.050593246 -0.009843788 0.028989585 -0.0040864153 -0.0074983356 0.05313537 -0.049581382
-0.069730476 0.051570557 -0.017862579 0.003305059 0.041783884 0.00074006035 -0.045874804 -0.038787354
-0.018582953 -0.02556547 0.031916276 0.0055153007 0.0023137864 0.0049927756 -0.022782927 0.039208036
0.068759315 0.06687774 -0.048599172 -0.07086503 0.051152676 0.044947997 0.057197765 0.033675775
0.05422269 0.028708376 0.019474747 0.05608384 0.074001946 -0.0017049178 -0.027297853 0.06365716
0.017750017 0.022292765 -0.059704486 -0.025706539 -0.04595803 -0.051365633 0.065026015 0.06104889
0.053897955 0.005895515 -0.0032017552 0.05779186 -0.032268137 0.027175767 -0.0008854725 -0.022500567
-0.01177938 0.022808928 -0.037942983 0.07248119 -0.038258974 0.001571066 -0.046059877 0.036783442
-0.0107885245 0.05912531 0.049044065 0.0434773 -0.024869284 -0.05769886 0.0421055 0.051625386
-0.06412018 0.066558704 -0.036466323 0.02768045 0.023521755 0.014852462 0.03705227 0.07494633
0.053647496 0.0712904 -0.009769064 0.017028594 -0.0641133 0.00914615 -0.030305304 -0.03105539
-0.04993598 0.007816483 -0.05777018 -0.0018935192 0.0040757786 -0.047387198 -0.061646804 0.04756307
0.025258617 -0.014981329 0.006248072 0.05972291 0.05747932 0.022151813 -0.002942963 -0.0069319033
-0.013909273 0.016700061 -0.026012719 -0.017743947 -0.038919352 0.0640253 0.018812163 0.04970987
-0.053880822 0.045347214 -0.06868652 0.0044347015 -0.0065512965 0.039429624 -0.03378205 -0.0053057857
-0.055109024 -0.015851114 0.011426205 -0.04864955 -0.034025937 -0.032611497 0.0571586 0.053356748
00000000: bf0a 81bd 7dc9 8c3d 6907 7dbd c533 2c3d
00000010: 45a5 9abd ddf2 99bd 993b cebb a78c 69bc
00000020: 1e01 4abb 6613 80bd e51f e83b efd7 76ba
00000030: e1d6 8b3d 95d4 6c3d 411b 853d 52eb 20bd
00000040: 72f4 f33c 5949 e2bc b0a2 65bd 604e 953d
00000050: 4a47 613d 3161 8e3d e62c c73c d6da b4bb
00000060: 54da cbbc 1892 1dbb 3fa4 22bd 141b 4bbd
00000070: 198d 423c c8af 0c3d c6d9 373d f7fc 223d
00000080: 7ed1 9bbd 6e24 7dbd 4b85 34bd bd76 5f3d
00000090: 2d62 1f3c 2b7c 80bc 3c6a ebbc 7bcb 55bd
000000a0: 4322 503d 52ec 6b3d 0d70 ef3b 3494 333c
000000b0: 0d96 183d 667d fdbc 1931 be3b 0331 94bd
000000c0: 9890 6b3d 74d3 08bd 9570 6cbd 140a 93bd
000000d0: eeab 23bd 9386 5f3d 0ac6 b63c f746 a23a
000000e0: 710f 793d a346 5bbd f9fc 0e3b 81b9 65bc
000000f0: b2d5 263d 23b9 e13c 5c9e 723c 5272 d2bc
00000100: a723 413d 898d 893d dacf 96bc df97 5abb
00000110: d40e aaba c359 eebc 4e65 67bd d5a4 fd3c
00000120: 3ca0 efbb fe15 cc3b 6894 5cb9 fd79 40bd
00000130: 508a e33c 2078 c43b 9d96 45bd 9d99 1dbd
00000140: acaa a4ba a4ef 3d3d efef 89bd 5f35 aa3c
00000150: 424a 80bb e049 84bd 23f1 62bd 8caf 1ebd
00000160: c257 63bd 574b c5bc 6d41 f83c 0f8b 8cbd
00000170: 6671 253c 44f0 103c 74a4 e43c 3924 47bd
00000180: 055f 073d 92c9 663d ddac 373d 73e0 813b
00000190: 0b4a d23c 13d3 13bd c60a 8cbd 0ccd 193c
000001a0: ded1 033d 135e a13c 6908 8dbd 2ece da3b
000001b0: eb26 81bd 7674 363d 35b1 90bd b06e 143d
000001c0: f2f2 363d 2b82 f7ba e46e bd3c 1f5b 493d
000001d0: 8bfc f1bb cbfc 243d ee57 04bd fe87 963d
000001e0: 1ce9 43bc 02f0 873d 8edc 8cbd d46a 9dbc
000001f0: 08ca 73bb 45d3 6c3d 05e4 4ebd eea9 73bd
00000200: 95a5 903d dd3a 4fbd d747 21bc 917b ed3c
00000210: 56e7 85bb 99b4 f5bb 79a4 593d d915 4bbd
00000220: dace 8ebd a63b 533d 8b54 92bc b099 583b
00000230: 9425 2b3d 9c00 423a 38e7 3bbd 7ddf 1ebd
00000240: 473b 98bc ad6e d1bc a4ba 023d b2b9 b43b
00000250: e5a2 173b 709a a33b 43a3 babc 9b98 203d
00000260: afd1 8c3d 32f7 883d ed0f 47bd af21 91bd
00000270: 7885 513d 641b 383d 3448 6a3d 9cef 093d
00000280: 9d18 5e3d d42d eb3c 8189 9f3c 2bb8 653d
00000290: 558e 973d 8c77 dfba bf9f dfbc af5e 823d
000002a0: 7c68 913c 519f b63c b18c 74bd 8596 d2bc
000002b0: 7d3e 3cbd c564 52bd 5c2c 853d 670e 7a3d
000002c0: 1ac4 5c3d 2a2f c13b 8ad4 51bb 28b7 6c3d
000002d0: 982b 04bd b79f de3c 0e1f 68ba 1c53 b8bc
000002e0: 4dfe 40bc cad9 ba3c 1a6a 1bbd 0571 943d
000002f0: 71b5 1cbd 3aec cd3a 48a9 3cbd 3caa 163d
00000300: 5ac2 30bc 622d 723d 6ee2 483d 4115 323d
00000310: abba cbbc a455 6cbd d176 2c3d 2475 533d
00000320: 7151 83bd ee4f 883d b65d 15bd 1cc2 e23c
00000330: b2b0 c03c be57 733c 1fc4 173d 767d 993d
00000340: 7abd 5b3d b400 923d 6d0e 20bc 8d7f 8b3c
00000350: d54d 83bd bcd9 153c d442 f8bc e067 febc
00000360: ac89 4cbd b510 003c 6da0 6cbd f62f f8ba
00000370: 1c8e 853b 1419 42bd 5c81 7cbd 7ed1 423d
00000380: 29eb ce3c 4074 75bc a0bc cc3b 03a0 743d
00000390: 6f6f 6b3d b877 b53c bade 40bb 0525 e3bb
000003a0: b8e3 63bc 91ce 883c a018 d5bc c15b 91bc
000003b0: e669 1fbd b21f 833d f71b 9a3c 949c 4b3d
000003c0: 23b2 5cbd 00be 393d 85ab 8cbd f950 913b
000003d0: 42ac d6bb f580 213d 0c5f 0abd 28dc adbb
000003e0: 00ba 61bd 32da 81bc fa34 3b3c c044 47bd
000003f0: c85e 0bbd a293 05bd 231f 6a3d 9b8c 5a3d

decoder.0.bias f4 [16]
-0.0035842906 -0.016009502 0.071611084 -0.047567107 0.00023316522 0.034663074 0.06434025 0.05085986
-0.06427117 0.0002578571 -0.011789451 0.037170816 0.017914971 -0.0140683865 -0.017961169 -0.05359731
00000000: 6be6 6abb 5c26 83bc d5a8 923d bad5 42bd
00000010: d07d 7439 defa 0d3d d2c4 833d 6e52 503d
00000020: 9aa0 83bd fe30 8739 8b28 41bc 6d40 183d
00000030: 6bc2 923c 177f 66bc 4d23 93bc da88 5bbd

decoder.2.weight f4 [16, 8, 4]
-0.09020408 0.11332513 -0.1522667 -0.07293325 -0.14032547 -0.048679255 0.044608425 0.15469216
0.14958575 -0.10118012 -0.17176439 -0.12210357 0.1069726 -0.14529559 -0.1263514 0.046265323
-0.009959784 0.050213564 0.010477925 -0.097381875 -0.15263942 0.1403314 0.15238439 0.017953241
0.008943964 -0.016172627 0.014909346 0.06294336 0.10235702 0.055267766 0.14386989 -0.04231435
-0.096329406 0.09358609 0.15428686 -0.062161732 0.096091464 -0.14556955 0.009705546 0.16880247
-0.00056373293 -0.1634435 0.068540186 0.13743079 -0.10541981 -0.01901653 -0.038624555 -0.17482665
0.16650364 0.08098736 0.055362023 0.096176215 -0.09423284 -0.12336987 -0.110616624 -0.043459266
-0.04599588 0.17416735 0.07854748 0.07303758 0.1628861 0.17276585 0.0037260707 0.10471137
0.17541543 -0.17062554 -0.020157063 0.08555971 0.029610254 -0.1260872 -0.07968724 -0.08191577
-0.008675114 0.08659909 0.12023137 -0.15617514 0.08359669 -0.10127465 0.030255746 -0.12302096
-0.17613287 -0.0471411 0.17109017 0.016972687 0.0068223374 0.15978654 0.13573499 -0.09147743
0.051821806 -0.07460944 0.08996033 0.11989879 0.03194559 -0.1274886 0.05111022 -0.048577596
-0.12499625 -0.13979183 -0.020085985 0.046805993 0.028019179 0.13944247 -0.1455045 -0.13316935
0.010674271 -0.15732385 0.15980724 -0.04256268 0.15249944 -0.121533506 0.15570307 -0.036342055
0.10804958 -0.027196143 0.16413465 0.0334041 -0.12336783 0.06301229 0.13823168 0.009474642
0.0952617 -0.06546188 0.1501366 -0.13405648 0.07366766 0.022876384 -0.031040573 0.07491595
0.029514194 -0.003709189 0.056242898 0.14681277 0.011634996 0.011359832 -0.14621203 0.10438182
0.11504682 -0.035638385 0.0461579 -0.13491988 0.16070308 -0.07198371 0.11044073 0.088329285
-0.078627355 0.14753266 -0.03376732 0.064706415 -0.012765785 -0.02796837 -0.058636256 -0.022844227
-0.06811603 0.034273356 -0.003406284 0.054165147 -0.036445376 0.103559986 -0.0051883142 0.057816036
-0.15867613 -0.090208344 -0.062949724 -0.028589532 -0.08873694 -0.11253485 0.10352881 -0.068473354
-0.113430195 0.12891228 0.1645282 -0.1338303 0.0764752 -0.032299966 -0.15261883 0.080026045
-0.17214218 -0.114181206 -0.08760107 -0.16712223 0.07027707 -0.11476342 0.12076567 -0.035280902
-0.020237882 0.13760771 0.04654858 0.08969 0.118628986 0.08973494 -0.04341328 0.113183446
0.012320442 0.022275753 0.15931082 -0.10929477 0.12807932 -0.026289 -0.03682806 0.002937462
0.14369659 0.0038133364 -0.13987844 0.05803085 0.06100448 0.13180222 0.14072141 -0.026340486
0.09420064 0.1281533 -0.15670817 -0.0052490593 -0.0970269 -0.0854427 -0.13170187 -0.020187153
-0.16094187 -0.09771539 -0.019447673 -0.15983061 -0.09380153 -0.08489031 0.061305873 0.17055754
-0.16557582 -0.054073635 0.1121877 -0.06286696 -0.007072494 0.17143178 0.12273758 0.10482448
-0.015052717 0.069659546 0.1544134 0.03769104 0.115250595 -0.090944424 0.0440409 0.16725598
-0.10326513 -0.055419028 -0.02473706 -0.1681531 0.041568547 -0.036671218 -0.088732205 -0.071970254
-0.047413673 0.014451182 0.12102052 0.08999534 -0.059116736 -0.05239949 0.006854315 -0.17424683
00000000: ebbc b8bd 0117 e83d cdeb 1bbe 075e 95bd
00000010: 7bb1 0fbe e663 47bd 53b7 363d 9f67 1e3e
00000020: 022d 193e 8637 cfbd 01e3 2fbe 7011 fabd
00000030: 7314 db3d 5ec8 14be 4362 01be b580 3d3d
00000040: 5d2e 23bc bdac 4d3d 9aab 2b3c 2670 c7bd
00000050: 824d 1cbe 09b3 0f3e a70a 1c3e ad12 933c
00000060: b489 123c 757c 84bc 5446 743c 73e8 803d
00000070: 8fa0 d13d 7460 623d a152 133e d051 2dbd
00000080: 5a48 c5bd 10aa bf3d 60fd 1d3e 4d9d 7ebd
00000090: 9acb c43d 2f10 15be 0304 1f3c 8eda 2c3e
000000a0: 7ac7 13ba bc5d 27be cc5e 8c3d a8ba 0c3e
000000b0: 57e6 d7bd 8ec8 9bbc c834 1ebd c205 33be
000000c0: ee7f 2a3e b3dc a53d 4ac3 623d 09f8 c43d
000000d0: 26fd c0bd 58a9 fcbd f88a e2bd 5802 32bd
000000e0: 2d66 3cbd ed58 323e 80dd a03d ba94 953d
000000f0: 9dcb 263e 88e9 303e 1831 743b ea72 d63d
00000100: 1aa0 333e 76b8 2ebe 6d20 a5bc ee39 af3d
00000110: 3491 f23c 011d 01be 1033 a3bd 75c3 a7bd
00000120: 1122 0ebc dd5a b13d dd3b f63d 60ec 1fbe
00000130: be34 ab3d 1569 cfbd e6da f73c 6af2 fbbd
00000140: 2d5c 34be 0717 41bd 4332 2f3e 4e0a 8b3c
00000150: ea8d df3b 159f 233e 1dfe 0a3e 8558 bbbd
00000160: 1a43 543d d6cc 98bd 1f3d b83d 7f8d f53d
00000170: 61d9 023d 5f8c 02be f358 513d 4df9 46bd
00000180: 09fe ffbd 9725 0fbe 5d8b a4bc a4b7 3f3d
00000190: 7a88 e53c 02ca 0e3e 22ff 14be 8c5d 08be
000001a0: 23e3 2e3c 8119 21be 82a4 233e 3456 2ebd
000001b0: d028 1c3e 8fe6 f8bd a070 1f3e 68db 14bd
000001c0: 1949 dd3d 72ca debc ea12 283e bdd2 083d
000001d0: 46a8 fcbd 960c 813d 9b8c 0d3e 873b 1b3c
000001e0: 9118 c33d e110 86bd 69bd 193e 1a46 09be
000001f0: 12df 963d 4167 bb3c cd48 febc 896d 993d
00000200: c0c7 f13c dd15 73bb f45e 663d 1656 163e
00000210: b6a0 3e3c 971e 3a3c 9bb8 15be 23c6 d53d
00000220: ab9d eb3d 8ef9 11bd 1110 3d3d 7028 0abe
00000230: 598f 243e 326c 93bd c02e e23d fce5 b43d
00000240: 6107 a1bd cd12 173e 9a4f 0abd cc84 843d
00000250: 9527 51bc ec1d e5bc 922c 70bd d123 bbbc
00000260: 6b80 8bbd 3862 0c3d f63b 5fbb 46dc 5d3d
00000270: bf47 15bd 4217 d43d bc02 aabb 82d0 6c3d
00000280: ff7b 22be 27bf b8bd c9eb 80bd 9834 eabc
00000290: b6bb b5bd ac78 e6bd ea06 d43d c23b 8cbd
000002a0: 174e e8bd 9501 043e 157a 283e cf0a 09be
000002b0: 089f 9c3d f84c 04bd 1c48 1cbe b2e4 a33d
000002c0: 0a46 30be d6d7 e9bd 3168 b3bd 1722 2bbe
000002d0: 6ded 8f3d 1509 ebbd fe53 f73d b582 10bd
000002e0: eac9 a5bc 09e9 0c3e b9a9 3e3d 64af b73d
000002f0: c1f3 f23d f4c6 b73d 20d2 31bd b9cc e73d
00000300: aedb 493c a47b b63c 6022 233e f0d5 dfbd
00000310: 3a27 033e 075c d7bc 05d9 16bd 6f82 403b
00000320: 3325 133e 2be9 793b 4b3c 0fbe c2b1 6d3d
00000330: d5df 793d 29f7 063e 4619 103e 01c8 d7bc
00000340: 44ec c03d 9e3a 033e 1b78 20be 4d00 acbb
00000350: 0ab6 c6bd 95fc aebd dbdc 06be 875f a5bc
00000360: f2cd 24be 021f c8bd ba50 9fbc a3aa 23be
00000370: 041b c0bd f9da adbd de1b 7b3d a3a6 2e3e
00000380: b58c 29be 517c 5dbd aac2 e53d 65c0 80bd
00000390: 61c0 e7bb d08b 2f3e d75d fb3d 38ae d63d
000003a0: ac9f 76bc aaa9 8e3d 8c1e 1e3e ec61 1a3d
000003b0: 8108 ec3d 1241 babd 3b64 343d 2745 2b3e
000003c0: ab7c d3bd 10ff 62bd 60a5 cabc 5430 2cbe
000003d0: c843 2a3d 8f34 16bd 3bb9 b5bd 2465 93bd
000003e0: d734 42bd a7c4 6c3c 9bd9 f73d 7a4f b83d
000003f0: 6424 72bd d9a0 56bd 299a e03b c36d 32be

decoder.2.bias f4 [8]
-0.15092503 0.10901444 0.059678193 0.15211152 0.00014004216 -0.14697143 0.0006315927 -0.0786294
00000000: 178c 1abe f642 df3d 1f71 743d 1fc3 1b3e
00000010: 48d8 1239 ae7f 16be 7891 253a 7308 a1bd

decoder.4.weight f4 [8, 1, 100]
0.010849155 -0.0766972 -0.07438561 0.09974452 0.0050858813 0.014729927 -0.01590792 0.0077314097
-0.070296556 -0.0063862526 -0.096178696 -0.08878578 -0.06537507 0.018774915 -0.043118138 0.064371035
0.06581579 -0.049864776 0.04896612 0.073373556 0.07284704 0.083595134 -0.05140803 0.093605064
-0.026675448 -0.04277912 0.014278778 0.0954462 0.05329019 0.052959263 -0.00061613903 -0.013869574
0.008450442 0.0845496 0.043195564 -0.03274776 -0.09798549 0.09148605 0.062715456 0.04105441
-0.04656751 0.08644408 -0.030122546 0.008631636 0.041333724 0.023634633 0.03801479 -0.04031963
-0.05062199 -0.03926894 0.0048343786 0.06696916 0.08176402 -0.04782095 -0.044832695 0.08566241
0.026429852 -0.0913688 -0.0129807815 -0.03616626 -0.029899111 0.09913323 0.050260242 -0.028765291
-0.03396212 0.014333832 0.03199539 0.026984135 0.044650827 0.086793356 -0.08917467 -0.010220486
0.057885773 0.078229904 -0.02393547 0.075306654 -0.046132907 -0.029344114 -0.057900187 0.0899823
0.049001478 -0.09126741 0.07581182 0.034199197 0.096536815 -0.013137167 -0.012556824 -0.07372373
-0.010742536 -0.087994315 -0.07894971 0.047614556 -0.006740376 -0.017316315 -0.097520635 0.058905218
0.08238241 -0.015831253 0.068632856 -0.04538705 -0.09146716 0.048509404 0.09389784 -0.095598795
-0.013932673 0.05808126 -0.008050678 -0.013160051 0.013135984 0.0010251177 0.05943857 0.028701374
-0.02689807 0.08026788 0.072326995 0.09799108 0.07968177 -0.00028474137 -0.037931997 -0.05432378
0.04310865 0.057092503 -0.0024634693 -0.059442904 0.09072132 -0.039292928 0.07191755 0.06344407
0.059934825 -0.09546264 -0.019976731 -0.025092047 -0.08671707 -0.028205995 0.05959141 -0.0916349
0.070760384 0.038943786 0.08303791 0.020365708 -0.057190165 0.0034059144 0.056188982 0.035578344
-0.06444529 -0.014099317 0.08544219 0.05925639 0.037337616 0.06748848 -0.061439667 -0.08844207
-0.05325017 0.07668864 0.0674176 0.06694783 0.015623155 -0.08471766 0.06672738 0.08417078
-0.024824264 0.011770217 0.0996023 0.027203249 -0.01894637 -0.074229084 0.100063026 -0.0065304628
0.0627538 0.08067855 -0.03653662 -0.034588635 0.04148396 -0.03906613 -0.05850505 0.08512269
-0.030578675 -0.030678665 -0.06699542 0.004297199 0.036958724 -0.085235916 -0.06577009 -0.08160821
0.030709304 0.042855445 -0.008072431 -0.0835456 -0.03652222 0.011424581 -0.051271647 -0.04832466
0.021730406 0.08871026 -0.09191961 0.08015775 -0.0423685 0.00024924934 -0.06190951 -0.06190253
0.08902965 -0.046875264 0.053670328 -0.09632259 0.02242534 -0.04848221 0.029590854 -0.08376725
0.012772419 0.049542844 0.07643561 0.07076941 0.09831489 -0.056813326 -0.05324598 -0.04882197
-0.07053927 0.05759842 0.09978043 0.00422768 0.04517972 -0.0014093504 0.012802594 0.09315983
-0.0274289 0.0024337594 0.07532744 0.008467314 0.08986099 -0.09295716 -0.09654621 0.10009222
-0.09526992 0.09603633 0.09634737 0.05279197 0.005384801 -0.0021577743 -0.07099577 -0.08645661
-0.088030435 -0.020779803 -0.0017924594 0.07504202 -0.040550575 0.064009026 -0.043118004 0.012954511
-0.048728734 -0.0272597 -0.02092951 -0.076187216 0.042734418 -0.0066371066 -0.07915977 0.046247993
00000000: a7c0 313c 6c13 9dbd 7c57 98bd db46 cc3d
00000010: 77a7 a63b cb55 713c 5451 82bc c457 fd3b
00000020: a4f7 8fbd c543 d1bb 56f9 c4bd 52d5 b5bd
00000030: 5de3 85bd dacd 993c a59c 30bd f6d4 833d
00000040: 6eca 863d 023f 4cbd b390 483d e044 963d
00000050: d430 953d ed33 ab3d 3a91 52bd 03b4 bf3d
00000060: 7886 dabc 2939 2fbd 89f1 693c 4c79 c33d
00000070: d046 5a3d d0eb 583d 6484 21ba 363d 63bc
00000080: b973 0a3c 5728 ad3d d5ed 303d 8422 06bd
00000090: 9eac c8bd 0a5d bb3d f670 803d ab28 283d
000000a0: 93bd 3ebd 9809 b13d 8fc3 f6bc b56b 0d3c
000000b0: 8d4d 293d 6b9d c13c 65b5 1b3d 3226 25bd
000000c0: 0159 4fbd 78d8 20bd b569 9e3b 2127 893d
000000d0: e573 a73d e7df 43bd 7da2 37bd c66f af3d
000000e0: 6b83 d83c 911f bbbd 58ad 54bc 1223 14bd
000000f0: fbee f4bc 5d06 cb3d afdd 4d3d 30a5 ebbc
00000100: dd1b 0bbd 73d8 6a3c 990d 033d d50d dd3c
00000110: c9e3 363d b7c0 b13d 36a1 b6bd d373 27bc
00000120: a219 6d3d 0037 a03d 5214 c4bc 603a 9a3d
00000130: dcf5 3cbd 1163 f0bc bf28 6dbd a448 b83d
00000140: c6b5 483d 68ea babd 3a43 9b3d 7514 0c3d
00000150: 18b5 c53d 463d 57bc 23bb 4dbc 78fc 96bd
00000160: 7601 30bc 5d36 b4bd 63b0 a1bd 7b07 433d
00000170: 5fde dcbb f2da 8dbc e6b8 c7bd 9946 713d
00000180: 1cb8 a83d 8bb0 81bc 628f 8c3d c5e7 39bd
00000190: 2253 bbbd ccb1 463d 834d c03d 4dc9 c3bd
000001a0: de45 64bc 9ee6 6d3d fee6 03bc 419d 57bc
000001b0: 4f38 573c 3e5d 863a dc75 733d 251f eb3c
000001c0: 5759 dcbc 7c63 a43d 2d20 943d 8caf c83d
000001d0: 3230 a33d 5749 95b9 955e 1bbd 9d82 5ebd
000001e0: b292 303d d4d9 693d 2872 21bb 677a 73bd
000001f0: 19cc b93d 9ff1 20bd 8249 933d f7ee 813d
00000200: 387e 753d eb81 c3bd 3ea6 a3bc d68d cdbc
00000210: b898 b1bd 4210 e7bc 1f16 743d 14ab bbbd
00000220: d2ea 903d 8583 1f3d c80f aa3d fcd5 a63c
00000230: 3c40 6abd c335 5f3b 6b26 663d 99ba 113d
00000240: e4fb 83bd d200 67bc 51fc ae3d d4b6 723d
00000250: 54ef 183d 6637 8a3d 29a8 7bbd 1e21 b5bd
00000260: da1c 5abd ef0e 9d3d 3d12 8a3d f21b 893d
00000270: 43f8 7f3c 7480 adbd 5da8 883d bb61 ac3d
00000280: 415c cbbc ded7 403c 4afc cb3d 59d9 de3c
00000290: 6b35 9bbc 6b05 98bd d8ed cc3d 7efd d5bb
000002a0: 1085 803d cc3a a53d 6ca7 15bd d0ac 0dbd
000002b0: 16eb 293d ce03 20bd fea2 6fbd ce54 ae3d
000002c0: 2180 fabc d351 fbbc e534 89bd 85cf 8c3b
000002d0: 0862 173d 2b90 aebd 78b2 86bd 3522 a7bd
000002e0: 1492 fb3c 3189 2f3d 3b42 04bc f519 abbd
000002f0: 5398 15bd 2a2e 3b3c 3802 52bd 14f0 45bd
00000300: f703 b23c baad b53d 5940 bcbd bf29 a43d
00000310: 988a 2dbd aead 8239 d494 7dbd 828d 7dbd
00000320: 2d55 b63d 4700 40bd 6bd5 5b3d c744 c5bd
00000330: 59b5 b73c 4895 46bd 8568 f23c 2a8e abbd
00000340: 6843 513c 70ed 4a3d 468a 9c3d 8def 903d
00000350: 5159 c93d 17b5 68bd 7518 5abd 8cf9 47bd
00000360: e576 90bd 52ec 6b3d af59 cc3d 5a88 8a3b
00000370: 5f0e 393d f4b9 b8ba f9c1 513c 95ca be3d
00000380: 93b2 e0bc b57f 1f3b 4645 9a3d 7dba 0a3c
00000390: 0a09 b83d 5360 bebd 05ba c5bd 26fd cc3d
000003a0: e01c c3bd b2ae c43d c551 c53d 653c 583d
000003b0: fc72 b03b 7269 0dbb 3b66 91bd 2a10 b1bd
000003c0: 4d49 b4bd 683a aabc f5f0 eaba a1af 993d
000003d0: 5c18 26bd 2a17 833d 819c 30bd 283f 543c
000003e0: c897 47bd bc4f dfbc 5d74 abbc 0b08 9cbd
000003f0: 490a 2f3d 167c d9bb 841e a2bd 896e 3d3d
